Convolutional Neural Network/assignment_01/checkpoints/best_model_assigment_01.pt (torch, 250648 bytes, 10 tensors)

conv1.weight f4 [6, 1, 5, 5]
000000 77 85 f8 3d 84 d3 23 bd 10 b3 b2 bd 57 60 fd bc
       0.121348314 -0.03999664 -0.0872556 -0.030929727
000010 cd dd 33 3d df bf 2c be 5c 18 45 3b 25 b7 48 3e
       0.043912698 -0.16870068 0.0030074334 0.19601114
000020 13 ec 95 3d 7d fb 72 3d dd 63 92 bc d0 02 8c bc
       0.07320418 0.05932187 -0.017869884 -0.017091185
000030 e8 a1 f7 bd d5 19 4c bd c9 fb c3 3c 95 16 db 3d
       -0.12091428 -0.049829323 0.023923771 0.106976666
000040 d6 3d 27 3d a8 ae a8 3c 72 88 df bc cc 30 fe bd
       0.040830456 0.020591095 -0.027286742 -0.12411651
000050 66 72 15 be 69 79 0b 3e 97 96 d8 bd eb c3 45 bd
       -0.14594421 0.13620533 -0.10575598 -0.048282545
000060 d7 17 32 3e ce 3a 64 bd d2 20 2e 3d 18 bd 81 3c
       0.17391907 -0.055720143 0.04251177 0.015837237
000070 21 4a d0 bd 37 31 97 3b 21 4a bb bc c4 b7 81 3b
       -0.10170389 0.004614021 -0.022862496 0.003958674
000080 78 e0 10 be f9 fc 42 3e 52 45 4e bb e3 8e e2 3d
       -0.14148128 0.19041814 -0.0031474424 0.1106241
000090 de 57 98 bd 18 58 c2 bb 2d 48 68 bd 79 db 62 bd
       -0.07438634 -0.0059309117 -0.056709457 -0.055385087
0000a0 1d ca 0f bd be ac d3 bc 5e 08 79 3c 2b 45 a0 3c
       -0.03510486 -0.025839206 0.015199749 0.019564232
0000b0 76 2c 76 3c 97 df 97 3d 46 ea 05 bc b1 a8 ba 3a
       0.015025249 0.07415693 -0.008173531 0.0014240948
0000c0 95 1f dc 3c 79 73 9a 3a 5a b9 ae 3d de 92 df ba
       0.026870528 0.0011783681 0.08531447 -0.001705732
0000d0 48 ec 8d bd ea cd 41 bc bf fb 84 3d 31 da 0a be
       -0.06929833 -0.011828879 0.06493329 -0.13559796
0000e0 f5 d5 a4 3d 32 b5 07 3e e5 aa a8 bc 3e 14 22 bb
       0.080486216 0.13252714 -0.020589301 -0.0024731304
0000f0 25 72 12 3e 08 92 f6 bd 28 4f ed 3d 12 26 00 be
       0.14301355 -0.12039572 0.115873635 -0.12514523
000100 02 91 b5 bd f1 98 c2 3c 38 9d c9 bd ba aa af bd
       -0.08865549 0.023754569 -0.0984444 -0.085774854
000110 eb 29 e6 3d 12 08 1d 3e 66 8c ad bd 85 19 bb 3c
       0.11238464 0.1533511 -0.084740445 0.022839317
000120 69 68 0a 3e 9b 3f d0 bd f3 8e 8a bd d6 fc 4a 3d
       0.13516392 -0.10168382 -0.06765547 0.04955753
000130 84 9b 09 bd f5 20 9e bc 50 fd 49 3d 92 3c 5f bd
       -0.033595577 -0.019302825 0.049313843 -0.054501124
000140 0a 51 89 bd 7f 0c a5 bd 90 3f b3 3d 2e 03 07 bd
       -0.0670491 -0.08059024 0.08752358 -0.032962017
000150 85 61 8e 3d 38 c6 e8 bc 26 e1 aa 3b 51 93 9c bd
       0.06952194 -0.02841483 0.005214828 -0.07645286
000160 cd a6 91 bd 55 5e b3 3d 08 d6 7b 3b ae 89 f8 3d
       -0.07111893 0.08758227 0.0038427133 0.12135635
000170 45 3f 53 bd 93 e0 0e be 83 aa 92 3c 92 0d e6 3d
       -0.05157401 -0.13952856 0.017903572 0.11233057
000180 f4 3f 97 bd f4 8a f1 bc 36 b9 24 3e 0b 5f 10 bd
       -0.07385245 -0.029485203 0.16086277 -0.03524689
000190 2f 29 62 bd 1d 8b d2 bd b0 7b a7 3d 61 2c a2 3d
       -0.055215057 -0.1028044 0.081778884 0.07918621
0001a0 0f 78 c0 bd 72 98 03 3d f9 77 18 3d 14 7d 24 3e
       -0.09397899 0.032127805 0.03722379 0.16063339
0001b0 e9 78 09 be 24 ca 36 3e 6b a2 a8 bd 3f 23 ea 3b
       -0.1342503 0.17850548 -0.08234104 0.007145315
0001c0 c3 68 80 bd 7c 56 2c be e2 b7 6d 3b 98 53 13 3e
       -0.06269982 -0.16829866 0.0036272933 0.14387357
0001d0 6a bb 3b be 29 1c 1c 3e 6c 0b b9 3d 8e 8a f3 bc
       -0.18333212 0.15245117 0.09035382 -0.029729154
0001e0 d3 46 c2 bd af 30 da 3d 22 58 26 bd fc c0 20 bd
       -0.09486165 0.10653817 -0.040611394 -0.039246544
0001f0 1c e4 5e bc ba 10 03 3c b3 26 4c 3c d8 0d d0 3d
       -0.01360419 0.007999593 0.0124603985 0.101588905
000200 47 cc df bd 5b 5d fb 3b 3e 8b bf 3d b6 3a 96 bd
       -0.10927635 0.007671041 0.0935273 -0.07335417
000210 20 0b 31 be 5e f1 ca 3d 41 ea 8b 3b 6f 5e 19 be
       -0.172894 0.099093184 0.0042698686 -0.1497743
000220 66 dd a1 bd e0 29 40 3e fc bf 35 3d 23 60 56 3d
       -0.079035565 0.18765974 0.044372544 0.052337777
000230 48 35 10 3e 2f f6 13 3e bd 88 5b bd ed 6a 02 be
       0.14082825 0.1444938 -0.0535972 -0.12736101
000240 79 32 4d bd a4 79 34 bd e5 d0 cf bd ed 32 3d 3e
       -0.050096963 -0.044061318 -0.10147265 0.18476458
000250 03 f4 14 be a0 02 7e 3d
       -0.14546208 0.062014222

conv1.bias f4 [6]
000000 d8 6d 26 3d 9e cb 55 3c b1 ce 6c bd 15 59 8b 3d
       0.0406321 0.013049034 -0.057814304 0.068041004
000010 aa e6 a1 3d d8 a5 43 3d
       0.07905324 0.047765583

conv2.weight f4 [16, 6, 5, 5]
000000 16 7e 23 be 50 82 85 3d a8 e9 f1 bd 16 0f 3e 3c
       -0.15966067 0.06518996 -0.118121445 0.011600276
000010 54 c1 2c 3e 82 70 1a 3e 43 4b 4f bd 55 e5 df bd
       0.16870624 0.15081981 -0.050608885 -0.109324135
000020 d9 ce 86 3d 0b 3a a8 3c 53 92 c3 3d 76 16 05 3d
       0.06582422 0.02053549 0.095493935 0.032492124
000030 7e 11 9d bb b7 66 24 3e 3c 12 d5 3b 4f a1 8e bd
       -0.004793345 0.16054808 0.006502418 -0.06964361
000040 c0 83 89 bd 71 71 8e be ad 46 c5 3c ab 14 92 3d
       -0.067145824 -0.27820924 0.024081552 0.07132848
000050 b7 03 c1 3d 97 39 38 3c 7b 69 0a 3d 22 aa a7 3d
       0.09424537 0.011244199 0.033792 0.08186747
000060 ed 40 ee 3c 41 09 8a bd 56 8e 82 be 2e a4 e0 bd
       0.029083693 -0.06740046 -0.2549922 -0.10968815
000070 ca a9 58 be f4 f5 99 be ac 3a 85 3d c1 d4 06 3c
       -0.2115852 -0.3007046 0.065053314 0.008229435
000080 11 76 18 be 43 ed 31 be 23 4a fc bc 83 ba 39 3d
       -0.14888789 -0.17375664 -0.03079707 0.045343887
000090 0a 0b 10 bd fd d4 dc 3d f5 a5 27 3e 19 db 49 3d
       -0.035166778 0.10782812 0.16371901 0.049281213
0000a0 9f 2f e0 bd 7a 1f 54 3c 91 e0 c1 bc 62 f8 4d be
       -0.10946583 0.012946958 -0.023666652 -0.20114282
0000b0 14 64 e9 3d c1 9a 1b be d2 e3 33 3e 59 2b 2a bd
       0.113960415 -0.15195753 0.17567375 -0.041545246
0000c0 ad c2 4e be a8 1c 0f 3e 8e 85 4a be d1 1b 7b be
       -0.2019145 0.13975775 -0.1977751 -0.2452233
0000d0 1a b0 09 bc f9 68 02 be c5 a2 0a be 07 f0 07 3e
       -0.008403802 -0.12735356 -0.13538654 0.13275157
0000e0 21 7a 06 3d b4 70 93 bd 66 21 00 bd 10 a8 69 3e
       0.032831315 -0.07199231 -0.03128185 0.22818017
0000f0 4c 4a 39 bd 00 b5 b5 bd 28 91 b0 3d a2 3f 9e 3c
       -0.04523687 -0.08872414 0.08621436 0.019317452
000100 4a d9 37 3c 8b ea 41 be 62 59 0b bd 8f 8b 47 bd
       0.011221239 -0.18937127 -0.03402079 -0.048717078
000110 4e 72 ff 3d 9e ce ef 3d 83 3f 4d bc b6 1d 02 be
       0.12472974 0.11709331 -0.012527349 -0.12706646
000120 05 60 82 bd 9d 07 39 3d eb 21 8a 3e 78 7c 7c be
       -0.063659705 0.045173276 0.26979002 -0.24656856
000130 40 5d 16 bd e0 ac 90 bd 39 45 21 3e 9e 93 a3 3e
       -0.036710024 -0.07064223 0.15749063 0.3194856
000140 5d 53 13 be 93 7d 18 3e 91 ba c1 3c c8 54 00 be
       -0.1438727 0.14891653 0.023648532 -0.12532341
000150 26 90 2d be 50 7e db bd d3 ba d0 bd a7 0b 6e bd
       -0.1694952 -0.107174516 -0.10191884 -0.05811658
000160 ad 5c 37 3d 9c 9e 45 3e f8 36 c8 b9 61 dc 60 3d
       0.044766117 0.19298786 -0.00038187928 0.05489767
000170 5b 4d df 3d 33 1c 97 3e 1d 32 eb 3e 82 e8 67 3d
       0.10903426 0.29513702 0.4593667 0.05661822
000180 2d cd 2c 3e c9 fc 30 bd 97 68 9e bd 97 50 21 3e
       0.16875143 -0.043209825 -0.07734793 0.15753399
000190 c4 c0 b0 bd 1f f5 04 be 21 3e 28 3d 8a fb 80 3d
       -0.08630517 -0.12984131 0.041074876 0.06297977
0001a0 ed 7d 68 3e 32 a7 b5 bd 2e 2b 2f 3e 1f 12 cf 3d
       0.22704287 -0.088697806 0.17106315 0.10110878
0001b0 57 c9 ca 3d 92 6e 69 be fb f4 95 3d c0 05 b9 bb
       0.09901684 -0.22796085 0.07322117 -0.0056464374
0001c0 b0 a9 4c 3d 74 86 26 3e ed 8e d5 3c 8b 93 c3 bd
       0.049966514 0.16262227 0.026069129 -0.09549626
0001d0 bb 0b 9e bd 87 e9 1f be f9 c4 c7 bc ea a3 cb bc
       -0.07717081 -0.15616427 -0.024385916 -0.024858434
0001e0 ec 68 9b 3e b6 d2 1e 3e 65 5e bc 3d 49 34 32 3e
       0.30353487 0.15510067 0.09197692 0.17402758
0001f0 1b 89 a5 3d 8c 20 82 3e 72 e9 df 3c df 49 55 be
       0.080827914 0.25415456 0.027332995 -0.20828961
000200 aa 83 fb 3d 1c 4e e5 3d c0 d2 fc 3d b9 a3 a6 b8
       0.12280972 0.11196539 0.12344885 -7.9459925e-05
000210 20 20 df 3d 9c eb 7d 3e 61 31 4b 3e 9a 36 71 3e
       0.10894799 0.24796909 0.19843055 0.23555985
000220 a6 2b 95 3e e3 dd d0 bd 36 bf 33 be 75 9d e1 3d
       0.29134864 -0.101985715 -0.1755341 0.11016361
000230 e7 59 9a 3e 79 62 12 be 49 ed f7 bd bc 9d a8 3d
       0.30146715 -0.14295377 -0.121058054 0.082332104
000240 e9 ef 2b 3d ca ad b1 3d de 5a 2c bd 6d a4 1e 3e
       0.041976843 0.08675726 -0.042078845 0.15492411
000250 64 a4 25 3e 04 32 ee 3d f7 1e 73 3b e9 4d 18 3e
       0.16175991 0.116306335 0.0037097314 0.1487347
000260 69 d2 5c 3e 83 d6 5e 3e 71 e4 f3 bd b6 f2 cf 3d
       0.2156464 0.21761517 -0.11908806 0.10153715
000270 09 14 80 be 65 81 29 be e5 6f b9 3c e4 ce 40 ba
       -0.25015286 -0.16553266 0.022636363 -0.0007355048
000280 79 b7 1f 3d 17 eb b6 3d ad ed d1 3e 21 9b 8f bc
       0.038993333 0.089315586 0.41001645 -0.017530026
000290 41 25 0f bc 57 de 47 3e 59 89 80 3d 49 33 7d 3e
       -0.008736909 0.1951841 0.06276197 0.24726595
0002a0 5d 55 04 be d5 9c ec bc 4c f7 13 3d fe 9b 73 3d
       -0.12923189 -0.028883377 0.036124513 0.059474938
0002b0 4c 3a 0d bd cf d8 35 3e 21 2b 3d be b5 51 58 be
       -0.034479424 0.17758487 -0.18473484 -0.21124919
0002c0 27 4d 89 3d 09 73 c1 3d 56 8a ba 3c d5 36 82 3d
       0.06704169 0.09445769 0.022771042 0.06358115
0002d0 f4 f2 42 bd 71 57 11 3d 25 18 42 be 05 7a 1b 3e
       -0.04759498 0.03548378 -0.18954523 0.15183266
0002e0 82 3c e5 3c fa 42 0d 3e 6b 72 9a 3d 97 e8 b4 bd
       0.027982954 0.13795081 0.07541355 -0.088334255
0002f0 4b 08 1a 3e fd 2c 3a 3e 05 18 c3 3b 36 b5 5b be
       0.15042226 0.18181224 0.005953791 -0.21455845
000300 78 ce 21 be 01 2b b0 bd a8 50 0a 3e 24 45 49 3d
       -0.15801418 -0.08601952 0.1350733 0.049138203
000310 81 3e f5 bc cb 85 b0 3d 7e 17 9c 3d 7e b6 2c 3e
       -0.02993703 0.08619269 0.07621668 0.1686649
000320 21 bf 51 bd ce 1c 0b bd 49 9e 6e bd f4 cf 0f be
       -0.051207665 -0.033963017 -0.05825642 -0.14044172
000330 8d 43 e9 3d d4 c3 d7 3b cd 1f 42 3e 4f 39 2a 3e
       0.113898374 0.006584624 0.18957444 0.16623424
000340 ff 77 8e 3e 9d 3a 83 3d a8 f3 3c be 4c 28 d3 3d
       0.27825925 0.06407664 -0.18452322 0.103104204
000350 d2 f8 cb bd 10 a7 73 3e 50 a0 0c 3e d8 2f 88 3c
       -0.09959568 0.23794198 0.1373303 0.016624376
000360 56 04 ab 3d fa ab 76 3a ed 2b 2b 3d 63 bf 01 3e
       0.083504364 0.0009409782 0.041789938 0.12670664
000370 06 e4 94 3d 9b 40 32 be 72 b8 30 bd ac b9 d0 bc
       0.072700545 -0.17407458 -0.04314465 -0.02547916
000380 6f 3c 19 3e e4 b7 a8 be 49 11 82 be ca 6c 08 be
       0.1496446 -0.32952797 -0.25403813 -0.1332275
000390 7d c9 5f 3d 35 8e 12 be e0 59 35 bd e1 c6 40 3e
       0.054635514 -0.1431206 -0.044275165 0.18825866
0003a0 64 f9 9a 3e 10 9e 05 3f ce c9 b5 3d 8e 19 8c 3c
       0.30268395 0.5219431 0.08876382 0.01710203
0003b0 84 fd 92 3d 69 e6 90 3d fe 01 5b 3e 68 ae 8a 3c
       0.071772605 0.07075197 0.21387479 0.016928867
0003c0 3a c4 9c bd 95 9a 43 bd 34 cb 24 3e 16 9a 75 3e
       -0.07654615 -0.047754843 0.16093141 0.2398456
0003d0 fb 54 e6 3e b4 ae 0a be 34 c6 98 3e 8d cb 89 3e
       0.4498671 -0.13543206 0.29838717 0.2691311
0003e0 5c 2a 3d 3d 9a 41 94 3e c8 c3 98 bd 81 03 4e bd
       0.046182975 0.289563 -0.07459217 -0.05029631
0003f0 34 f5 8a 3d 98 51 c1 bd f5 df a2 be 91 2a f4 3d
       0.0678505 -0.09439391 -0.3181149 0.119221814

conv2.bias f4 [16]
000000 ef 6b 8f be 4a 19 72 be 59 fb 81 3e ee 75 15 bc
       -0.28012034 -0.2364246 0.25387076 -0.009122355
000010 1d a9 13 3e c7 51 38 be 61 75 1e be 26 f0 a1 3e
       0.1441998 -0.17999946 -0.15474464 0.3162853
000020 9c 4a 51 bd 9a 15 66 3e 72 f9 4b 3e c5 58 c4 be
       -0.051096544 0.22469178 0.19919375 -0.38348976
000030 07 dc 76 3e 82 ee c2 3c 46 b3 a4 3d 8f 29 7f 3e
       0.24107371 0.02379537 0.08042006 0.24918197

fc1.weight f4 [120, 400]
000000 fb 46 19 3e 9e 1b 4f be d2 06 81 be 69 31 34 bd
       0.14968483 -0.20225379 -0.25200516 -0.043992434
000010 1f ef 7b be 32 63 7a bd 4a 8b bf bc d8 dd aa 3d
       -0.24602936 -0.061129756 -0.023381848 0.083430946
000020 16 2b 8f be 70 d4 ff 3e ee ba 3d 3e a7 f3 86 be
       -0.2796256 0.49966764 0.1852834 -0.26357767
000030 80 1e 20 be 46 7b 47 be 37 24 82 bd 1d 0e 37 3e
       -0.15636635 -0.19480619 -0.06354564 0.17876478
000040 2b bb e8 bc 09 5b 23 3d 2c 6f 4e be 08 87 0f bd
       -0.028409561 0.03988174 -0.20159596 -0.035040885
000050 f0 b0 94 be 5a ef b7 be e2 5b 0c be 6a f3 2f 3e
       -0.29041243 -0.35924798 -0.13706926 0.17182699
000060 5d 8d 86 3e 29 d0 19 be 16 24 70 be be fb 41 3e
       0.26279727 -0.15020813 -0.23451266 0.18943688
000070 ea ff c8 bd ba 05 78 3c 3a 3b 86 3d 9e bb 33 be
       -0.09814437 0.015138084 0.06554265 -0.17552039
000080 f7 6b 81 be 0b 10 8d be 6b bd cb 3e 75 b1 a7 bc
       -0.25277683 -0.27551302 0.39792952 -0.02047036
000090 9a de 37 3e 18 b1 89 3c b9 bd 47 3d 2d 15 2a 3f
       0.1795601 0.016808078 0.048764918 0.6643856
0000a0 dd ff 81 3e 08 6d 2a 3e af ee 54 be 4e de 5a bd
       0.2539052 0.16643155 -0.20794176 -0.053434663
0000b0 2e f4 84 3e 95 27 f0 3e ae 8b b7 bc 74 f6 0d ba
       0.25967544 0.469052 -0.022405472 -0.00054154475
0000c0 97 78 f6 bc e2 87 91 be 1d 6b 4c 3d ac 00 32 3f
       -0.030086799 -0.28423983 0.04990684 0.69532275
0000d0 f7 d7 81 3e a9 1b 96 3e 62 e3 dc 3d 50 c2 1f 3f
       0.2536008 0.29317978 0.10785557 0.6240587
0000e0 c6 cc 4e 3e d1 71 32 3e 92 f0 d5 3e 8f bf 88 be
       0.20195302 0.1742623 0.41785103 -0.26708648
0000f0 b5 ee cb bd 64 4d 47 3e 14 f3 be bd bf 5a 06 3e
       -0.09957639 0.19463116 -0.09323707 0.13120554
000100 f6 fe 7a bd 5d 6c 54 bd 10 8c fb bd 0c ef b8 bc
       -0.061278306 -0.051861156 -0.12282574 -0.022574924
000110 a1 94 d6 3d a2 f5 78 3d 66 89 2c 3e 7a 32 5d 3e
       0.104775675 0.06078113 0.16849288 0.21601287
000120 a6 76 4c 3d f2 c5 4d bd a2 8a 23 bd 80 7a 5f bc
       0.04991784 -0.050237603 -0.039927132 -0.013640046
000130 ea d2 c2 bd e2 e0 37 3e 38 25 af be 67 06 79 bf
       -0.09512885 0.1795688 -0.34208083 -0.97275394
000140 c9 e9 a1 bd c7 7b 86 be 08 46 89 3e ce fc ef bc
       -0.07905919 -0.2626631 0.26811242 -0.029295351
000150 88 c3 04 be ba 8d 52 be 79 ac 0d be 2b c0 d8 bd
       -0.12965214 -0.20561877 -0.13835324 -0.10583528
000160 9d 65 99 bd f7 1a 7d 3f ae 0d 8f be 47 47 70 be
       -0.07490084 0.9886927 -0.27940124 -0.2346469
000170 6a b8 be be fa 28 87 bd 6d 3c a6 be 33 1b 2d be
       -0.37250072 -0.065996125 -0.32467976 -0.16904907
000180 ba 4c 02 bf d8 b6 f0 3d 4e 3c 99 3e 78 39 e2 3e
       -0.50898325 0.11753625 0.2992882 0.4418447
000190 56 58 ee 3e 7d 96 46 3e 8d c8 89 be 72 69 41 bd
       0.4655177 0.19393344 -0.2691082 -0.0472197
0001a0 91 7f 07 3f 56 43 1b 3e 83 c0 9e be ea 02 0f be
       0.52929026 0.15162405 -0.3100625 -0.13965955
0001b0 11 9e 22 bf 58 4a 2c bf 65 5d 00 bf c7 d0 c9 be
       -0.6352244 -0.6730094 -0.5014251 -0.39417097
0001c0 3b 4e d6 be c5 5b b4 bd 7f f6 2d 3e bc d0 f9 3e
       -0.4185656 -0.08806566 0.16988562 0.48792064
0001d0 db 04 6c 3c e8 fb 46 3e f2 9d 28 3e 8b 04 a2 3e
       0.0144054545 0.19432032 0.16466501 0.3164409
0001e0 4e 2d ac be 27 14 e6 bd eb 3c 0b 3e 56 20 74 be
       -0.33628315 -0.112343125 0.13597457 -0.2384046
0001f0 61 26 bc be ef 4d b1 be b6 6b 06 bc ec d5 23 3d
       -0.3674803 -0.3462977 -0.008204391 0.039998934
000200 49 5c 2b be 4b 7d 9e be 72 33 11 3d 5d 4d 38 bd
       -0.16734423 -0.30954966 0.035449453 -0.044995654
000210 a9 bd 1d 3e a7 df 27 3e 0e 0d 11 3e cc 03 84 3e
       0.15404381 0.1639391 0.14165136 0.25784147
000220 01 72 80 3d 02 da 22 3e 9d 48 7e 3e c0 ca 07 be
       0.062717445 0.15903476 0.24832387 -0.13260937
000230 6a 31 6b bc 43 34 a0 3e 68 44 9d 3c e4 34 42 3e
       -0.014355043 0.31289873 0.019197658 0.18965489
000240 1c 68 c0 bd f7 0f c4 3c 3b 1a 09 3e 1f fb 93 3e
       -0.09394857 0.023933394 0.13388912 0.28902528
000250 d2 80 81 3d 17 82 ee bc 1f a2 2c bf 3f ce 11 bf
       0.06323399 -0.029114766 -0.6743488 -0.5695533
000260 0d a5 4f be 6d 11 84 be 1a 90 04 bd 77 73 a0 be
       -0.20277806 -0.25794545 -0.03236399 -0.31338093
000270 75 e9 9f be f9 04 6a be 6c 93 c5 3d ab 1f a3 3d
       -0.312328 -0.2285346 0.09647259 0.079650246
000280 dc 33 36 3e 03 ec 48 bc 7a 7f 19 3d 8a de 40 3e
       0.1779322 -0.012263301 0.037475087 0.18834892
000290 f1 37 24 3e e6 44 34 3f 6f 27 b9 bc 1e 0d 4f 3e
       0.16036965 0.7041763 -0.022601811 0.20219848
0002a0 95 b9 4d 3e 73 ea 69 3e 4d ab ef 3c 69 ee e9 bd
       0.20090325 0.22843342 0.029256487 -0.11422426
0002b0 67 26 14 3e 05 92 e2 bc 7e 59 06 3f c5 1a e9 3e
       0.14467774 -0.027657518 0.52480304 0.45528236
0002c0 80 39 5f 3e 88 28 c3 bc 1a 8e 1f 3e 26 b1 6c be
       0.21799278 -0.023823038 0.15581551 -0.23114452
0002d0 7f 5e fc 3e b1 15 3b 3e 41 7c 5d bd 60 86 9e be
       0.49290845 0.18269993 -0.054073576 -0.30961895
0002e0 d8 05 f2 be d9 a1 25 be 8d 56 2a be 4d be 81 bd
       -0.47270083 -0.16175021 -0.16634579 -0.06335125
0002f0 61 24 68 bd be 33 d3 bb ad 02 5a 3e bc 9d 12 be
       -0.05667532 -0.006445377 0.21290083 -0.14317983
000300 1b a9 3a 3d 80 fc 3a be 2b 36 85 be 5f a8 0a 3f
       0.045571428 -0.18260384 -0.2601789 0.54163164
000310 ca c0 b4 bd 3b 7e 41 be af bc 75 be 1d 0b cb 3c
       -0.08825834 -0.1889581 -0.23997758 0.024785573
000320 1d 64 16 be 54 e8 04 3d 2b 66 fe bd 2b a7 80 be
       -0.14686628 0.032448128 -0.12421831 -0.2512754
000330 b4 22 14 be 8b cb 94 bd 3a 94 49 3e a9 84 d1 3d
       -0.14466363 -0.07265385 0.1968545 0.10230381
000340 04 90 99 be b5 39 61 bd 5a 5a 1c be 53 53 fa 3d
       -0.29992688 -0.054986674 -0.15268841 0.12222924
000350 0e ef be 3e 51 6f 25 be a7 ea 92 3d 60 63 bb bd
       0.3729176 -0.16155745 0.07173663 -0.09149814
000360 aa 8d 57 3e f9 ea 94 bb b1 72 80 3c f0 06 43 bb
       0.21050134 -0.0045446125 0.01567969 -0.0029758774
000370 43 47 0c 3d e0 97 01 3e 76 a8 97 bd 55 4f ba 3d
       0.034247648 0.12655592 -0.07405178 0.09097163
000380 2b 4c 05 bd 3f 78 f2 3d ee 48 ba 3d 57 b9 93 be
       -0.032543343 0.11839341 0.090959415 -0.2885234
000390 47 6b e2 3e 3f f4 01 3f ee 99 d4 3c 83 f7 94 3d
       0.4422247 0.50763315 0.025952306 0.072737716
0003a0 48 0c 39 be b3 ea c7 bb dc 6c 79 3f 8f 12 05 be
       -0.18071091 -0.0061009764 0.9743173 -0.12995361
0003b0 ce a2 28 3e 9b 1d 91 be a7 5c b1 3e e0 d3 0d bf
       0.16468355 -0.283429 0.34641 -0.5540142
0003c0 fc 26 22 3e 1d 85 ad be 9d 15 d2 3e 0a e0 9c 3e
       0.15835184 -0.3389062 0.41032115 0.30639678
0003d0 19 75 70 be f7 65 b9 3c f0 08 8c 3e b8 3d 9b 3e
       -0.23482169 0.022631628 0.2735057 0.30320525
0003e0 62 a6 21 be 67 c4 c7 bd b8 25 12 bd a3 6b 26 3e
       -0.15786126 -0.09754258 -0.035680503 0.16251998
0003f0 db d9 a5 b9 53 fc 2b 3e 84 c3 a4 be 8a b4 28 be
       -0.00031633567 0.16795473 -0.32180417 -0.1647512

fc1.bias f4 [120]
000000 b9 8c f0 be 84 9e 97 bd 24 fc 61 3e b0 a9 98 3e
       -0.46982363 -0.07403281 0.2206884 0.2981696
000010 c6 0a e8 3e e4 69 a2 3e 6d 01 fc be aa 58 d2 3e
       0.4532072 0.31721413 -0.49219838 0.4108327
000020 36 df 40 3e 37 8c a3 be 0a 65 88 3e 93 1a 67 3e
       0.18835148 -0.31942913 0.26639587 0.22568731
000030 1c d5 93 3e 38 73 ce be ef e5 cb 3e e0 8a af be
       0.28873527 -0.4032228 0.39823863 -0.3428564
000040 1c dd 91 be 1d 22 8e be de d7 90 be ab f0 b8 be
       -0.28489006 -0.277604 -0.28289694 -0.36121115
000050 a3 90 d4 3e 74 79 6d 3e 23 2b ad 3e 5e 6a ac be
       0.415166 0.23190862 0.33821973 -0.33674902
000060 9d b1 67 3d 90 ee ae 3e 1e 76 7f 3e dc a9 23 be
       0.05656587 0.34166384 0.24947402 -0.15982765
000070 85 dd 00 be 80 3b 95 be 7c ee 1f 3e f7 2c 00 3f
       -0.12584503 -0.29146957 0.15618318 0.5006861
000080 54 0a dc be df 29 88 be b0 16 4b be 66 d5 8d 3e
       -0.4297663 -0.26594445 -0.19832873 0.27701873
000090 28 66 85 3e d1 3f f1 be 1b 3d 66 3e 25 a8 03 be
       0.26054502 -0.47119 0.22484247 -0.12857111
0000a0 32 03 ad 3e a3 d8 a4 be 63 45 a7 3e f8 9c 43 be
       0.337915 -0.3219653 0.32670125 -0.19102848
0000b0 73 ad 8d 3e b3 80 86 3e 9a 8d 82 be 7b 11 93 3e
       0.27671394 0.26270065 -0.25498658 0.28724274
0000c0 bc 8d 9c 3e 17 bf 26 3e d8 da f2 be 8c e4 df be
       0.30576885 0.16283832 -0.4743259 -0.43729055
0000d0 e4 9b ce be 99 14 9e 3d 97 d8 6d 3e 13 da bc bd
       -0.4035331 0.077187724 0.23227154 -0.09221282
0000e0 85 fc 26 3e 94 50 ef 3b d8 0d 42 3c 2b ff 6c be
       0.16307266 0.007303307 0.011844121 -0.23144214
0000f0 10 bd 1a be 93 28 36 3e 17 f1 8f 3e e6 c8 b5 3e
       -0.15111184 0.17788915 0.28113624 0.35504836
000100 d9 47 8c be 49 21 05 3f da 5b 2c 3f 5e a6 20 3f
       -0.27398565 0.52003914 0.67327654 0.62753856
000110 f9 e1 8e be da 5f 1f 3e f1 d4 77 be 44 3e d0 3d
       -0.27906778 0.15563908 -0.24202324 0.10168126
000120 ed 45 b6 bd 81 9d 00 be 78 9f 87 3e ab 8f 80 3d
       -0.08900056 -0.12560083 0.26488853 0.062774025
000130 83 2c a4 be da a2 84 be 96 13 54 3d 94 0a 0d 3e
       -0.3206521 -0.25905496 0.05177649 0.13773566
000140 24 ac 09 3f 82 66 24 3e f2 8b 3c be 8b 98 5f 3e
       0.5377829 0.16054729 -0.1841276 0.21835534
000150 91 49 ab be 28 46 12 bf ea 93 8e be 0c a4 88 be
       -0.33454564 -0.571383 -0.27847224 -0.26687658
000160 9a 18 a4 3e d1 91 7a be 64 c0 ec 3e 4a c6 84 be
       0.3205002 -0.24469687 0.46240532 -0.25932533
000170 be f5 21 3e fa 4c 5e be 6c 5a a5 be 33 dc 8f 3e
       0.158164 -0.21709052 -0.3229555 0.28097686
000180 f8 45 ce be f4 a8 77 be 56 8f 6a bd bb 77 89 3e
       -0.40287757 -0.24185544 -0.057265602 0.2684916
000190 e2 fd 99 3e 33 5a 91 3e de 4e 54 be 79 0b c1 3d
       0.3007651 0.2838913 -0.2073321 0.09426016
0001a0 e8 c5 61 be 28 12 e9 3e 3e 6b c7 be 39 8e 96 be
       -0.22048151 0.45521665 -0.38949007 -0.29405382
0001b0 fd e5 e9 be c8 ab 84 bd 27 e0 f8 be 37 06 a7 be
       -0.4568328 -0.06478077 -0.48608515 -0.3262193
0001c0 59 bb 81 3e bf 16 a7 be 08 93 a4 3d e4 01 db be
       0.25338247 -0.3263454 0.080358565 -0.4277488
0001d0 4b 0c 97 be c2 c5 7d be fa 19 bd be 2b c6 38 3e
       -0.29501566 -0.2478247 -0.3693388 0.18044345

fc2.weight f4 [84, 120]
000000 68 36 4a 3e 94 c4 bb 3e d3 29 d4 bb 1c 9d 61 3c
       0.19747317 0.36673415 -0.0064747124 0.013770368
000010 b4 05 17 be 02 b4 ec 3d 73 26 2c bc d0 fd e1 3c
       -0.1474827 0.11557771 -0.010507214 0.027586848
000020 ea 06 0b 3e 8c cb 9a bd 75 40 6d be 9c cf ff 3d
       0.13576856 -0.07558355 -0.2316912 0.1249077
000030 7b 6c 4a be 06 b7 88 3d 5a be e8 bd 2d 14 0d bd
       -0.19767945 0.06675534 -0.11364432 -0.03444307
000040 19 9d 3b be 47 22 7c 3e 0d 2e 62 3d d0 76 29 be
       -0.18321647 0.24622451 0.0552197 -0.1654923
000050 af 63 95 3d 2f 18 e5 bc d4 0f 07 3e e0 2b 4f 3e
       0.07294404 -0.027965633 0.13189632 0.2023158
000060 3c 92 70 3e 49 5f dd 3b 7c 5c f1 3d 80 f2 b3 be
       0.23493284 0.0067557436 0.11785218 -0.3514595
000070 e7 00 81 3d d3 cf cd bc 6f b5 81 bd f9 73 a1 bd
       0.06299 -0.025123512 -0.06333434 -0.07883448
000080 06 fa 61 bc 4d b5 14 3d 27 7f 28 3e 98 a0 bd 3c
       -0.01379252 0.036305714 0.16454755 0.023147866
000090 ef 40 a2 bd 21 5a 0d be 05 7d fa bd f1 5b 66 3e
       -0.07922541 -0.13803913 -0.12230877 0.2249601
0000a0 8c 0b 8a bd 25 91 a8 3e ae c4 66 bd 37 f5 39 be
       -0.06740484 0.32923236 -0.056339912 -0.18159948
0000b0 62 c3 a8 bd 0f df 82 3e 0c 2a a9 3e 6d c8 60 be
       -0.08240391 0.25560805 0.33039892 -0.21951456
0000c0 12 c7 2a be e1 3a 15 be c3 95 d9 3d 81 2c 5c be
       -0.16677502 -0.14573242 0.10624268 -0.21501352
0000d0 78 a5 49 3e 88 65 34 be e8 e8 29 be 79 eb 1f 3e
       0.19692028 -0.17616856 -0.16592753 0.1561717
0000e0 1a e0 27 bd 39 a0 0a 3d 82 cb da bd 10 30 27 3e
       -0.040985204 0.033844206 -0.10683347 0.16326928
0000f0 88 e6 22 bd f3 08 82 be 71 c8 68 bc 81 47 7b be
       -0.039770633 -0.25397453 -0.014207945 -0.24538995
000100 f4 f2 c1 bd d7 4e ff 3d 9b 35 ee bd fc ff de 3c
       -0.09470168 0.124662094 -0.11631318 0.027221672
000110 93 c9 45 3e 81 ac a6 bd 8d 34 bd 3d 8b 62 eb be
       0.19315176 -0.08138371 0.09238539 -0.4597362
000120 99 43 2a 3e 98 ab 27 be d0 63 94 ba 43 d0 2b 3e
       0.16627349 -0.16374052 -0.001132125 0.16778664
000130 48 eb ea bd f0 e1 81 3b ba 1c b6 3e 72 64 49 bc
       -0.114706576 0.0039637014 0.35568792 -0.012292014
000140 41 2e ac bc 5d c5 6d be 06 ef 87 bb d4 82 b5 3d
       -0.02101815 -0.2321982 -0.004148367 0.08862844
000150 cd d2 d8 bc 0b d0 91 3d 29 7b 1e 3e 83 d6 cb 39
       -0.026467705 0.07119759 0.1547667 0.00038879
000160 cd 1c 89 be 42 63 49 3d 56 42 5c 3e 22 cc 10 3e
       -0.26779786 0.049166925 0.2150968 0.1414037
000170 e7 89 1c bd a8 ee b6 3e b7 34 81 3e 7b 34 41 3c
       -0.03821745 0.35728955 0.2523553 0.0117922975
000180 e4 3a ed 3d 22 fd 8b 3d 2e e2 d4 be fe 16 78 be
       0.11583498 0.068353906 -0.4157881 -0.24227521
000190 0f 81 4f 3e fe a4 84 bd e7 c0 b3 3d 7d a5 05 3d
       0.20264076 -0.06476782 0.087770276 0.032628525
0001a0 6c b9 02 3e 57 1d 63 3e e4 d6 75 3e b2 19 e4 3d
       0.12766045 0.22179161 0.24007756 0.111377135
0001b0 4c f0 cd 3d 8f 4a 2f 3d 2b c6 00 be 21 19 58 3e
       0.100555986 0.042795714 -0.12575595 0.21103336
0001c0 a3 e7 ca 3d 8f cf a6 bd c6 5c cd bd 25 cb 20 3d
       0.099074624 -0.081450574 -0.10027461 0.039256234
0001d0 1c 01 13 3e cc 1c 8b 3e 24 1e 33 3d 14 f2 ac bd
       0.14355892 0.27170408 0.043729916 -0.0844461
0001e0 8d 4d 9d bd 9a 08 f9 bd 8c 59 91 3d 93 a2 6e 3d
       -0.07680807 -0.12159844 0.07097158 0.05826051
0001f0 b8 e2 86 bd 4a 69 d1 3d 2c 2d f8 3d ac ef 43 39
       -0.06586212 0.102251604 0.12117991 0.00018685934
000200 d0 c2 02 bd be 9d cc 3c fc e0 15 3d 03 51 0c 3e
       -0.03192407 0.024977561 0.036591515 0.13702779
000210 49 73 e5 bc dc 6d 94 bd e0 92 68 3b a2 17 6a bd
       -0.028009074 -0.072475165 0.0035487935 -0.057151444
000220 67 48 87 3e 41 1f 99 bc 06 a4 cd bd 05 2f 57 be
       0.26422426 -0.01869166 -0.100410506 -0.2101403
000230 35 07 26 bd 13 c7 57 3d 39 80 d6 bc 00 cc 1b bd
       -0.040534217 0.052680086 -0.026184188 -0.038036346
000240 0c 00 80 3d 70 31 bf 3d 8d f7 1d be 2a 74 88 be
       0.06250009 0.09335601 -0.15426464 -0.26651126
000250 42 12 ef bd be 49 b7 3c 1d a5 26 be c1 d6 94 3d
       -0.11673404 0.02237403 -0.16273923 0.072675236
000260 d9 f4 ae bd 72 82 bb bd d9 d8 e0 3d 53 e5 33 3e
       -0.08542795 -0.0915574 0.109788604 0.17567949
000270 1b 4e 54 3c b4 a5 fe bb f9 f8 2b 3d af 09 a4 3d
       0.012958075 -0.007771218 0.041985486 0.080096595
000280 e7 84 58 bd a5 68 56 3d ef 0b 4c be 5f e1 fb bd
       -0.05286112 0.05234589 -0.19926427 -0.122988455
000290 56 c7 8f bc 84 01 c8 3a 71 44 85 3e 6b 83 1c bd
       -0.017551105 0.0015259241 0.2602878 -0.038211267
0002a0 94 d6 13 be 07 aa f8 bd 52 77 8b bd 86 9a b6 3d
       -0.14437324 -0.12141805 -0.06809868 0.08916192
0002b0 3d b1 6a 3d dc 5f ed be 0c d2 b4 3c 96 2c 92 3d
       0.057297934 -0.46362197 0.022072814 0.0713741
0002c0 ec 2f 1d 3c 7f 5c 40 3e b8 58 18 3e d9 82 b5 bd
       0.009593945 0.18785284 0.14877594 -0.08862848
0002d0 ed 8f 03 3e 0a 0a 62 bd d6 77 a0 bc 38 68 b6 bd
       0.12847872 -0.055185355 -0.019588392 -0.08906597
0002e0 6c cf a5 3d ba 14 a3 bd 42 c0 2b bd 8a ea 76 3e
       0.08096203 -0.07962938 -0.0419314 0.24112907
0002f0 1a f2 a0 3b ae 1d 72 bc fc 76 b4 3c a3 c1 c7 bc
       0.0049116733 -0.014777584 0.022029392 -0.024384325
000300 2c f6 fc 3c f1 94 b6 3b da d4 89 bd ca 7a 46 3d
       0.030879103 0.0055719544 -0.06730051 0.048456945
000310 78 1f bf b9 d8 57 d5 3b 78 1d 4f 3d e0 be 84 bc
       -0.00036453805 0.006510716 0.050565213 -0.016204298
000320 d8 69 c5 3b a1 c1 43 3c 9c 23 ac bd 3b 2c 4f bd
       0.0060245804 0.01194802 -0.084052294 -0.05057929
000330 5d 25 0c bc e9 6c 07 bd 45 87 39 3e 68 ea 0f be
       -0.00855383 -0.03306285 0.18118007 -0.14054263
000340 18 93 c4 bd 31 58 12 3f 82 68 64 3e 89 ce 67 3d
       -0.095983684 0.5716582 0.22305492 0.05659345
000350 6e a6 ca bd 2b 33 98 bd 38 c1 9b 3d a7 e9 fb 3b
       -0.09895025 -0.074316345 0.07605213 0.0076877656
000360 84 55 03 3d ae 1c fd 3c 7f 57 0c bf 7b 79 1b bd
       0.032063976 0.030897465 -0.5482101 -0.03795765
000370 05 79 5b 3e b5 44 10 be 79 81 0e be e3 ac 6a 3c
       0.21432884 -0.1408871 -0.13916577 0.014323446
000380 a5 b7 6e 3d 45 fa 0a bd 36 b0 91 bc 9d 56 07 3c
       0.058280606 -0.033930082 -0.01778422 0.008260396
000390 65 6e 87 3e 71 1b b5 3e 81 0c cc bd 02 00 9a ba
       0.26451412 0.353725 -0.099633224 -0.001174927
0003a0 44 dc a6 3d 5f ff 6f bd c5 ef 62 bd 02 e2 4a bd
       0.08147481 -0.05859315 -0.055404443 -0.049531944
0003b0 ca 9f f3 3c df c9 16 be 3b 30 82 bc a2 89 e8 3b
       0.02973928 -0.14725445 -0.015892139 0.0070964852
0003c0 0d d0 bd bd bc 95 a0 3d 9b 20 c9 3c 98 a5 ce 3c
       -0.09268198 0.078410596 0.02455168 0.025225446
0003d0 60 a8 25 be 48 60 40 3e 50 28 19 bd 14 bb d4 3d
       -0.16177511 0.18786728 -0.03739196 0.10387245
0003e0 f5 a6 5a 3e 53 13 81 bd 2b f7 c3 bd 96 3c 1f be
       0.21352752 -0.06302514 -0.09568628 -0.15550455
0003f0 90 f0 1e be ef 79 06 bb 2a 24 ad 3c 3a ae ba 3d
       -0.15521455 -0.0020519455 0.021135408 0.09115262

fc2.bias f4 [84]
000000 43 20 79 3d 67 bd b4 3e 10 80 3d be 3b 2d 08 be
       0.060821783 0.35300753 -0.18505883 -0.13298504
000010 81 48 40 3e 58 56 80 3e e6 21 f8 be 9e 08 83 3d
       0.18777658 0.25065875 -0.48463362 0.06398128
000020 55 93 97 be 77 2c 95 be 27 40 a0 3e ce 51 2e bd
       -0.29604593 -0.29135486 0.31298944 -0.042558484
000030 14 32 10 3e 53 27 f3 3d bd 90 70 3e 90 8b 6f be
       0.14081603 0.11872735 0.23492713 -0.23393083
000040 1d e3 af bd f7 95 74 bd ff 00 cd 3d cd aa c8 bc
       -0.0858824 -0.05971333 0.100099556 -0.024495507
000050 6e 1a a5 3d 1c 2e 37 be 5f fd 58 be d9 53 da be
       0.08061682 -0.17888683 -0.21190403 -0.42642096
000060 5c 5c b1 bc 52 b4 1e be 9a d7 7b bd ae 16 0c 3e
       -0.021650486 -0.15498474 -0.06148491 0.13680527
000070 63 56 17 bb 61 c5 19 3e d9 9b 32 3e e5 db 37 3e
       -0.0023092262 0.150167 0.17442264 0.17954977
000080 e2 46 7f be d9 b0 8e 3d 1e e3 90 3e b6 c9 4a be
       -0.24929383 0.06967325 0.28298277 -0.19803509
000090 b5 3c 9a 3e bb d7 4c bc d0 31 96 3d 75 90 a6 be
       0.3012444 -0.012502606 0.0733372 -0.32532087
0000a0 54 22 0c 3e b8 8f 58 3e 8b 96 1a 3c 76 60 c1 3e
       0.1368497 0.21148574 0.009435306 0.37768906
0000b0 73 0d d0 be c3 b5 5f bf d0 7e 4a be 5a a8 a7 3c
       -0.4063526 -0.8738672 -0.19774938 0.020466018
0000c0 23 76 5b bf ac 01 01 3f bb 16 03 bd ae 47 7b be
       -0.8572714 0.50393176 -0.0320041 -0.24539062
0000d0 44 e2 98 3d e6 1c e8 3e 5e 0e 1e 3d ac e0 a8 be
       0.07465032 0.45334548 0.03858792 -0.3298391
0000e0 b1 a2 b2 bd 4b 31 7c be 47 78 1a be c5 4c 30 be
       -0.08722437 -0.24628179 -0.15084945 -0.17216785
0000f0 ff ed aa be 9a 4d 87 be fd f5 cd bd d2 58 52 3e
       -0.33384702 -0.26426393 -0.10056684 0.20541695
000100 6a 68 d0 3d cf f8 cb bd a3 44 6f 3f 9a 03 5a be
       0.101761654 -0.09959566 0.93464106 -0.21290436
000110 98 74 1d be b4 96 24 3e da c0 d3 3e e3 4d 14 3e
       -0.15376508 0.16073114 0.41358072 0.14482836
000120 24 5e 3b 3e e8 b9 cf 3d 24 76 e5 bc c9 51 26 3e
       0.1829763 0.10142881 -0.028010435 0.16242136
000130 3c 29 16 3e d1 c5 a7 3e 77 f1 96 3b 57 e8 c5 3d
       0.14664167 0.3276811 0.0046064216 0.09663456
000140 19 fe 07 3e d2 35 1c be 9f ee 89 bd 90 0d 0a be
       0.13280524 -0.15254906 -0.067349665 -0.13481736

fc3.weight f4 [10, 84]
000000 d5 cf 6e 3d a4 d9 da bd 32 72 21 be d5 04 5c 3d
       0.058303673 -0.10686043 -0.15766218 0.053715546
000010 c4 2b 28 3e 03 a4 c5 3d c1 1d 25 3e 7a c5 81 3c
       0.16422945 0.096504234 0.16124631 0.015841234
000020 a0 67 40 3e a7 59 4b 3e 6a 1a 10 bd f2 f6 03 3d
       0.1878953 0.19858418 -0.03518144 0.032217927
000030 d3 92 48 bd 44 17 d5 bd e5 a5 8a bd 15 4f 50 3d
       -0.048968147 -0.10404828 -0.06769923 0.05085667
000040 65 aa 14 3d fc 11 1d bd 44 69 41 bb 4d 60 a7 3e
       0.036295313 -0.03834723 -0.0029512206 0.3269066
000050 74 57 ec 3d 85 01 a0 bd ee cb 17 3d 45 2c 95 bb
       0.11540118 -0.0781279 0.037059717 -0.0045523965
000060 da 0f 6d bc 7e 14 3f bd 77 19 1a bc de bf d5 bd
       -0.014469111 -0.046650402 -0.009405485 -0.104369864
000070 7f 09 e9 bd ab 9d f0 3c 2d db 27 3e e1 69 9c 3d
       -0.11378764 0.029372057 0.16392203 0.07637382
000080 f1 97 2a bd a5 e3 b2 bd 22 b9 e0 bc 1d b5 5c 3e
       -0.04164881 -0.08734826 -0.027432028 0.21553464
000090 51 d9 b7 3d 16 6f 27 bd 6e 10 41 be 07 06 1f 3d
       0.08976997 -0.040877424 -0.18853924 0.038824107
0000a0 f8 32 f1 3d 84 da 77 3d 63 dc 02 be b2 24 c5 bd
       0.117773 0.060511127 -0.12779383 -0.0962614
0000b0 f1 2f e8 3d ec 47 2c be d8 e6 aa bd d1 28 35 bd
       0.11337269 -0.16824311 -0.08344811 -0.04422838
0000c0 ab 43 78 be df 31 13 3e 9d f8 0a be 09 31 46 3d
       -0.24244563 0.14374493 -0.13571401 0.048386607
0000d0 39 6d 9e 3d 49 bd e1 3c ef a5 be bc 55 18 2f be
       0.07735676 0.027556079 -0.023272483 -0.17099126
0000e0 b1 31 51 3e c4 3c 9e 3d 90 12 90 3d 14 fa fd bd
       0.20429112 0.07726434 0.070347905 -0.12401214
0000f0 67 78 3f bd ba 4a 0e bd 9e f9 ca 3c 2d 21 bb bd
       -0.046745684 -0.034739234 0.02477723 -0.09137187
000100 f5 a3 1c 3e 0b c2 0e be a8 af b0 be 71 1a 6a 3d
       0.1529692 -0.13941209 -0.34509015 0.057154123
000110 9a 7f d2 3b d9 55 a7 3c 86 04 ec bc df 98 cf bd
       0.0064239027 0.020426678 -0.02881075 -0.1013658
000120 79 ba d7 3d 58 88 72 be 72 b2 6c 3c 69 e2 88 3c
       0.10533614 -0.23684824 0.014446842 0.016709523
000130 17 bc 21 3e f1 12 10 be b9 9b 3b 3e bf 4e eb 3d
       0.15794407 -0.14069726 0.18321122 0.11489629
000140 6c c5 03 bd b3 92 aa 3d 77 59 d7 bc b5 d3 10 3e
       -0.032170698 0.08328762 -0.026287777 0.1414326
000150 4d b5 2a 3b 83 27 ae 3d 6c 97 38 be 8e ff 58 3e
       0.0026048005 0.0850363 -0.18026513 0.21191236
000160 80 3e c9 bd a7 6f b2 bd 09 87 2c 3e 9d d5 d2 3d
       -0.09826374 -0.08712702 0.16848387 0.1029465
000170 a7 9a c4 3d 32 c4 d6 3e e9 8b 90 3e 56 41 f0 bd
       0.0959981 0.4194656 0.28231743 -0.11731212
000180 e0 50 26 3d bb 80 0f be 61 0e 74 be e8 a9 c2 3e
       0.040604472 -0.1401395 -0.2383361 0.38020253
000190 63 e9 1c bd 25 4f 98 3e 36 2f 8c bd 60 08 c0 bb
       -0.038308512 0.29747882 -0.06844942 -0.0058603734
0001a0 b9 2f 0b 3e ef a6 cb 3d 11 4b a5 bd aa cc d5 3d
       0.13592423 0.099439494 -0.080709584 0.10439427
0001b0 66 1c 56 be 78 82 a2 3d 21 5e 9c be 33 bc 07 bf
       -0.2090927 0.07935041 -0.30540565 -0.53021544
0001c0 5c 9b 05 3e e3 11 8b bc 59 bb fc bd 1a bf 34 3e
       0.13047546 -0.016976302 -0.12340421 0.17651024
0001d0 27 ee b7 3d f6 3a c0 be 48 3f 9f be 51 d4 3c 3d
       0.08980971 -0.37544984 -0.31102967 0.04610092
0001e0 b8 ef 00 be 71 79 14 3e 72 ee 2b 3e 44 59 48 3e
       -0.12591445 0.14499451 0.16790178 0.19565302
0001f0 bb b7 68 3d b1 6f 46 be 68 f7 22 be 1f fc c2 bd
       0.056815844 -0.19378544 -0.1591469 -0.095207445
000200 e3 34 86 3e 9e 4f f2 3e 31 fa 5f 3e ef 07 36 be
       0.26212224 0.47326368 0.21872784 -0.17776464
000210 a6 b4 c5 be 07 a9 10 3e 71 fc d4 be a3 23 d5 bd
       -0.38614386 0.14126979 -0.41598848 -0.10407188
000220 ac 57 81 3d 99 53 0f be b9 59 b9 3e c9 47 13 3e
       0.0631555 -0.13996734 0.36201265 0.14382853
000230 5f cd 76 3e c7 a9 43 3c 64 39 62 3e 03 d2 1b 3e
       0.2410178 0.011942334 0.22092205 0.15216832
000240 25 d5 48 3e 39 71 74 bd 20 db 45 3e de 20 1d 3e
       0.19612558 -0.05967829 0.19321871 0.15344569
000250 32 63 2b be 4c e5 af bd c5 46 c3 3e 7d 83 14 3e
       -0.16737059 -0.08588657 0.3813993 0.14503284
000260 fc 22 cb 3b 8b 8f 4a 3e 79 7a a2 be fb 18 74 be
       0.006199239 0.1978132 -0.31734064 -0.23837654
000270 50 89 66 3d 21 db 9e bd 39 0d c3 bd 54 b2 58 be
       0.056283295 -0.07756639 -0.095240064 -0.21161777
000280 35 f9 b2 3c 64 cf 93 be 10 10 1b 3e ca 10 f6 bd
       0.021847347 -0.28869164 0.15142846 -0.12014921
000290 8b e2 c7 be f7 bf 41 3e 11 ab 96 3e 4e 01 c3 3e
       -0.39040026 0.18920885 0.29427388 0.38086933
0002a0 87 2d 34 3d 66 43 ac bb 73 9e 9f bd 62 7c 82 bd
       0.04398873 -0.005257058 -0.07793894 -0.063713804
0002b0 fc 34 bb 3d 16 4c 04 bd c4 0d 3e 3b 35 f0 da 3d
       0.09140965 -0.032299124 0.0028999904 0.10690347
0002c0 4b ff 44 bd d2 20 3e bd a5 15 7d 3d 49 b2 07 be
       -0.04809503 -0.04641802 0.06178822 -0.13251604
0002d0 6a 5a 86 3c 55 34 01 3d 08 57 ff 3d 88 6b 6b bd
       0.016400535 0.03154405 0.12467772 -0.057475597
0002e0 ba 2f 18 3d 21 c9 a1 bd 7b 18 4b 3d 76 8c 93 3b
       0.03715489 -0.078996904 0.049583893 0.0045028282
0002f0 24 7a 80 3d 75 cb 0e be e2 f0 ab bd a2 45 95 3c
       0.062732965 -0.139448 -0.08395554 0.01822168
000300 71 cd a6 3c 14 54 df bd b5 ab a6 3d bb b0 99 bc
       0.020361634 -0.109047085 0.08138219 -0.01876103
000310 0e 41 93 3c ac bb de bb 88 b9 d5 3d 20 2c fc bc
       0.017975356 -0.0067972746 0.10435778 -0.03078276
000320 56 9d e8 3b 83 af ab 3d f4 b8 81 3b 0d 45 ed bd
       0.007098834 0.083830856 0.0039588157 -0.11585436
000330 a0 a5 f6 bc 7d d0 c5 bd 8f 02 78 3c 64 15 6a 3e
       -0.030108273 -0.096589066 0.015137329 0.22859722
000340 22 cc e5 bc c3 22 af 3d 3f 6d 91 bd c5 26 3f be
       -0.02805144 0.08551552 -0.07100915 -0.18667133
000350 0e 23 d3 bc 5f 9a 59 be 38 a7 2a bd 97 97 f4 bd
       -0.025773551 -0.21250294 -0.04166338 -0.11942976
000360 cb e9 89 be 01 78 a1 3d 00 28 0d 3e 0f c1 64 be
       -0.26936182 0.07884217 0.1378479 -0.22339271
000370 29 6f 72 3d 34 6f d8 3c 3e d8 86 3b dd 9d 00 be
       0.05918804 0.026420213 0.0041151335 -0.1256022
000380 1b ef 7e 3c cc d7 d1 3b d7 2e bf bd ea 16 9a 3c
       0.015559937 0.006403899 -0.09335106 0.018809754
000390 3b a7 8c bd fd 2a 01 be f4 d8 57 3d ae 0d 24 3d
       -0.06867834 -0.12614055 0.052697137 0.04005211
0003a0 56 0c e1 bc 65 d0 69 bd 27 91 6c bc c0 6f 1d 3e
       -0.027471703 -0.057083506 -0.014438904 0.1537466
0003b0 00 96 3f be f5 16 07 be 53 79 ae 3c d4 26 b6 bc
       -0.18709564 -0.13192351 0.021298086 -0.022235312
0003c0 66 ba 46 be f3 a7 bc 3d f8 aa 10 3e 3c c3 a1 bd
       -0.19407043 0.09211721 0.1412772 -0.07898566
0003d0 58 d2 ad 3d b4 a3 96 3d 19 40 d5 bb d2 f2 b0 3d
       0.084873855 0.07355443 -0.006507885 0.08640064
0003e0 f6 c4 b8 ba c1 84 1d 3e 51 34 96 3c 1f 5e 66 bd
       -0.0014096785 0.15382673 0.018335493 -0.056242105
0003f0 f9 ca 0b 3d 2c e3 4c 3d da 88 84 bc 08 9d 0c 3e
       0.034129117 0.050021335 -0.016178537 0.13731778

fc3.bias f4 [10]
000000 de 45 c7 bf c9 f2 88 bf fc b7 9f 3e ce 80 0a 3e
       -1.5568197 -1.0699092 0.31195056 0.13525698
000010 ec d5 67 be 86 dc 89 3f 11 4d 1a bf 86 84 fc be
       -0.22640198 1.0770423 -0.60273844 -0.49319857
000020 d6 49 95 3f 61 a4 77 3e
       1.1663158 0.241838
